best_model.pth (torch, 58850 bytes, 19 tensors)

model.0.weight f4 [128, 11]
0	0xbe0e90ca	-0.1392242
1	0x3e5e4c10	0.21708703
2	0xbe9d4cba	-0.307226
3	0xbe917442	-0.2840901
4	0x3e52fb74	0.20603734
5	0x3dab301a	0.08358784
6	0x3dcce13a	0.10003896
7	0x3c753f8d	0.014968765
8	0x3de216d0	0.110395074
9	0xbe7979c2	-0.24362853
10	0xbebc46bf	-0.36772725
11	0xbdd3dc84	-0.103447944
12	0x3e03a09e	0.1285424
13	0xbeb5cff9	-0.35510233
14	0xbeb3e761	-0.35137466
15	0xbd9f5b87	-0.07781129
16	0x3dad3c76	0.08458798
17	0xbe085dd0	-0.13317037
18	0x3e4dac56	0.20085272
19	0xbcfbd4a9	-0.030741053
20	0x3eaf9a64	0.34297478
21	0xbe581228	-0.21100676
22	0xbe99991c	-0.29999626
23	0x3e98c810	0.29840136
24	0xbbf3105e	-0.0074177226
25	0xba1a4353	-0.0005884666
26	0xbe554895	-0.20828469
27	0x3d9e9d28	0.07744819
28	0x3e779820	0.24179125
29	0xbe918ec7	-0.28429243
30	0x3da11812	0.07865919
31	0xbd6e4356	-0.058169685
32	0x3dd1bb31	0.10240782
33	0x3d80ef11	0.06295598
34	0xbe142af7	-0.14469515
35	0x3e6d0681	0.23147012
36	0x3dd44fd6	0.1036679
37	0xbdf602e0	-0.12012267
38	0xbdb9589d	-0.09050105
39	0x3d4d41f9	0.050111745
40	0xbdf13f31	-0.11779631
41	0xbee50e43	-0.44737443
42	0xbe688d46	-0.22710142
43	0x3d8ef621	0.06980539
44	0xbd655611	-0.055990282
45	0x3e753ce0	0.23949003
46	0xbd8623d0	-0.065497994
47	0xbed9de41	-0.4255238
48	0x3e3eea23	0.18644004
49	0xbe5d8095	-0.21631081
50	0xbd89435f	-0.06702303
51	0xbd45cb7f	-0.048289772
52	0x3e1d6676	0.15371117
53	0x3e9e37e1	0.30902007
54	0xbe75859b	-0.23976748
55	0x3dc44d29	0.0958503
56	0xbdf48fcf	-0.11941492
57	0x39dca759	0.00042086354
58	0xbc9c3078	-0.01906608
59	0xbc2688e9	-0.010164478
60	0xbe4d3d58	-0.20042932
61	0xbe5656e0	-0.20931578
62	0xbe278999	-0.16361083
63	0xbebfdbf7	-0.37472507
64	0x3e1ef13f	0.15521716
65	0x3e6600a3	0.2246118
66	0xbe6e4614	-0.2326892
67	0xbddb4f64	-0.10708502
68	0x3e597956	0.21237692
69	0x3cf56410	0.02995494
70	0xbdc6eebd	-0.097135045
71	0xbe325613	-0.17415647
72	0x3a8dc0d1	0.001081491
73	0xbd262ac2	-0.04056812
74	0xbe3d4904	-0.18484885
75	0xbd03e3d2	-0.03219969
76	0x3e8e285b	0.27765164
77	0xbe46fd06	-0.19432458
78	0x3e709385	0.23493774
79	0xbe920a84	-0.28523648
80	0xbe923e2e	-0.28563064
81	0xbdee93a5	-0.11649255
82	0xbdb6aca9	-0.08919651
83	0xbd8df249	-0.06930978
84	0x3d32fdae	0.04369896
85	0xbe10df2f	-0.14147638
86	0x3eaa5334	0.33266604
87	0xbe93caed	-0.28865758
88	0x3e2f04d7	0.1709169
89	0xbdff4c7a	-0.124657586
90	0xbdfcbf12	-0.12341131
91	0xbd6d374b	-0.05791406
92	0x3e2ec60a	0.17067733
93	0x3ddca82a	0.10774262
94	0xbdefe38e	-0.117133245
95	0x3e8eee50	0.27916193
96	0xbe3a8f84	-0.1821881
97	0x3d029c99	0.031887624
98	0x3ebbd5eb	0.36686644
99	0x3da53e3b	0.0806851
100	0x3dfa95f1	0.1223563
101	0xbea1da77	-0.31611988
102	0xbdcf2b79	-0.101157136
103	0xbdd60c62	-0.104515806
104	0x3e57eb0a	0.21085754
105	0xbe298158	-0.16553247
106	0x3dc4bb7f	0.096060745
107	0xbdea1c3b	-0.11431166
108	0xbcf84289	-0.030305164
109	0xbdcad524	-0.099039346
110	0xbdd0be1d	-0.10192511
111	0xbe19676b	-0.14980857
112	0x3e4a6ed9	0.19768848
113	0x3df6a469	0.120430775
114	0x3e843cd8	0.2582767
115	0xbe97fd3c	-0.2968539
116	0x3e7206d8	0.23635423
117	0xbe44c01a	-0.19213906
118	0xbe36f003	-0.17864995
119	0xbead7e4a	-0.33885413
120	0xbea3dca4	-0.32004273
121	0x3e76adf9	0.24089803
122	0x3e0665d3	0.1312478
123	0xbe03867e	-0.12844273
124	0xbdb88bad	-0.09011016
125	0xbe05da98	-0.13071668
126	0x3e036ad5	0.12833722
127	0x3dc37490	0.09543717
128	0xbd042423	-0.032261025
129	0xbe4897c3	-0.19589143
130	0x3e13254b	0.14369695
131	0xbdbea311	-0.09308446
132	0xbd85979a	-0.06523056
133	0xbc6832a7	-0.014172233
134	0xbe8630fb	-0.26209244
135	0x3ea0e81b	0.31427082
136	0x3d8eb19c	0.0696747
137	0xbe24a4bc	-0.16078466
138	0x3e512be1	0.20426895
139	0x3e6c3db0	0.23070407
140	0x3ec40e98	0.38292384
141	0x3e0da70a	0.13833252
142	0xbe9921e8	-0.2990868
143	0xbdd57ff1	-0.104247935
144	0xbd5089bd	-0.050912607
145	0xbd0a9754	-0.033835724
146	0x3e9cd205	0.30628982
147	0x3dfec60e	0.1244012
148	0x3ead32ba	0.33827764
149	0xbe2d6756	-0.16933951
150	0x3e84fb6b	0.25973067
151	0x3e7c6e3f	0.2465143
152	0xbdc531e3	-0.09628656
153	0x3eaa3360	0.3324232
154	0x3e5fe5fb	0.21865074
155	0xbca528ee	-0.020161118
156	0x3d1e4e94	0.038649157
157	0x3e0d8fe4	0.13824421
158	0xbd87143c	-0.06595656
159	0x3d5299f2	0.051416345
160	0xbe7bfb43	-0.24607567
161	0x3e82b633	0.25529632
162	0xbe74fe49	-0.23925127
163	0x3e2cbab1	0.16868092
164	0x3e4b9e9d	0.19884725
165	0xbc019f18	-0.007911466
166	0xbe3793c2	-0.17927459
167	0x3de0c592	0.109751835
168	0xbd255417	-0.040363397
169	0xbe81dbc8	-0.25362992
170	0xbc80db16	-0.015729468
171	0x3c89a1f7	0.016800864
172	0xbdd5299b	-0.10408326
173	0xbcdbb136	-0.0268179
174	0xbe83a241	-0.25709727
175	0x3aff8e21	0.0019497314
176	0x3dee6219	0.116398044
177	0x3c3d111f	0.0115397265
178	0xbe49c6e4	-0.19704777
179	0xbecd88fa	-0.40143567
180	0xbd7d62e0	-0.061861873
181	0xbd526107	-0.051362064
182	0xbd924cb6	-0.07143538
183	0x3e0341bf	0.12818049
184	0x3ea6fb23	0.32613477
185	0xbe8efe54	-0.27928412
186	0x3d9f41b7	0.07776206
187	0x3e3f6971	0.18692566
188	0x3e9e767c	0.3094977
189	0xbd8d4e39	-0.068996854
190	0x3e93d285	0.2887155
191	0xbe367016	-0.17816195
192	0xbd09726f	-0.033556398
193	0x3d7863ff	0.06064224
194	0x3e090a11	0.13382746
195	0xbe33f645	-0.17574413
196	0xbe936c6c	-0.28793657
197	0x3e5c336e	0.21503994
198	0x3e734da3	0.23760085
199	0xbe961eee	-0.29320472
200	0xbe0c11df	-0.13678692
201	0x3e4aead9	0.1981615
202	0xbe427636	-0.18990406
203	0xbdeead63	-0.11654165
204	0x3e3ee9d6	0.18643889
205	0x3d3f709b	0.04673825
206	0xbe88ebdb	-0.26742443
207	0xbe445357	-0.19172417
208	0x3e5388e3	0.20657687
209	0x3df478ce	0.11937104
210	0xbe9d6271	-0.30739167
211	0x3c644614	0.013932724
212	0x3e2c94d9	0.16853656
213	0xbd46958c	-0.048482463
214	0x3d8fdb0b	0.07024201
215	0xbdd275ae	-0.10276352
216	0xbe380776	-0.17971596
217	0xbea27d7b	-0.3173636
218	0xbd7aa196	-0.061189257
219	0x3e3291ff	0.17438506
220	0x3e36851d	0.17824216
221	0x3ec56d3f	0.3855991
222	0xbe88567f	-0.2662849
223	0xbda18342	-0.078863636
224	0xbc306257	-0.010765634
225	0xbe255d24	-0.16148812
226	0x3e78ae6a	0.24285284
227	0xbd34e3da	-0.04416261
228	0x3e14386c	0.14474648
229	0x3dedb75c	0.11607239
230	0xbe48d0ed	-0.19610949
231	0xbd96eda5	-0.07369546
232	0xbe4c6b2d	-0.1996276
233	0x3d7d2f95	0.061812956
234	0x3cf7a0ec	0.0302281
235	0x3e934ce2	0.28769594
236	0x3db9c3d2	0.09070553
237	0xbe070a0f	-0.13187431
238	0xbe6b6d37	-0.22990881
239	0xbe1b6d57	-0.15178429
240	0xbe46b6fd	-0.19405742
241	0xbe46a624	-0.19399315
242	0x3e503733	0.20333557
243	0xbec30412	-0.38089043
244	0x3df39ba8	0.118949234
245	0x3d47f24a	0.04881505
246	0x3e0879d0	0.13327718
247	0x3e241acb	0.16025846
248	0x3d439ac2	0.04775501
249	0xbe0a7464	-0.13520962
250	0xbda6ff31	-0.08154143
251	0xbd1d5340	-0.03840947
252	0x3ecfd794	0.4059416
253	0xbe1067d2	-0.14102104
254	0x3daa78c3	0.08323815
255	0x3de744e5	0.112924375

model.0.bias f4 [128]
0	0xbd91a4ec	-0.071115345
1	0xbdb21903	-0.08696177
2	0x3c12c0ed	0.00895713
3	0x3dd3c129	0.10339577
4	0x3e746ce8	0.2386967
5	0xbe483404	-0.19551092
6	0xbe5161aa	-0.20447412
7	0xbd2a3a21	-0.041559342
8	0xbe143fa6	-0.14477405
9	0xbdf7a315	-0.12091652
10	0x3cb86d48	0.022513047
11	0x3e7a767e	0.24459264
12	0x3e867f0f	0.26268813
13	0xbe487767	-0.19576798
14	0x3e5752b7	0.21027647
15	0x3b6f63ea	0.003652806
16	0xbe8f11a0	-0.27943134
17	0x3e8e7743	0.27825364
18	0xbe7f8d10	-0.24956155
19	0x3e8bcd7d	0.27305213
20	0xbe9a96b6	-0.30193108
21	0x3e1bdd01	0.15221025
22	0xbc1a9030	-0.009433791
23	0x3e66d511	0.22542216
24	0x3d26541d	0.04060756
25	0x3e0f622a	0.1400229
26	0xbe13981f	-0.14413498
27	0xbde26a83	-0.11055472
28	0xbdf8c23b	-0.121464215
29	0xbe01f784	-0.12692076
30	0x3e704c71	0.2346666
31	0x3e8be721	0.27324775
32	0xbe6bf268	-0.2304169
33	0x3e1d6688	0.15371144
34	0xbdd50554	-0.10401407
35	0xbd1b6b96	-0.0379444
36	0xbe82430f	-0.25441787
37	0x3e3ec02c	0.18627995
38	0xbe78fb0e	-0.2431452
39	0xbd89291b	-0.06697293
40	0x3e3cb1fa	0.18427268
41	0xbd1046d9	-0.035223816
42	0x3d30716e	0.043076925
43	0xbc940e1a	-0.01807313
44	0xbb59f0c2	-0.0033255075
45	0xbe3cc390	-0.18433976
46	0x3e8bcdb6	0.27305382
47	0x3e401c88	0.18760884
48	0xbe14be60	-0.14525747
49	0x3e21be98	0.15795362
50	0x3e1e7bf6	0.15476975
51	0xbea22b90	-0.3167386
52	0xbe5f5321	-0.21809055
53	0xbe62f9d0	-0.22165608
54	0xbd77c112	-0.06048686
55	0x3d766f07	0.060164478
56	0x3d29972a	0.041403927
57	0xbe3da87a	-0.185213
58	0x3d8c2787	0.06843477
59	0xbd202c99	-0.03910503
60	0xbbee2844	-0.0072679836
61	0x3d7d56a9	0.061850224
62	0x3d9c1289	0.07620723
63	0xbd1e4d4f	-0.038647946
64	0x3c8e3ee0	0.017363966
65	0xbe7a6c34	-0.24455339
66	0x3d40b34f	0.047046002
67	0x3e6a7048	0.22894394
68	0xbe52dad7	-0.20591293
69	0xbe3450c7	-0.17608939
70	0x3e618969	0.22025074
71	0x3d82e5cc	0.063914865
72	0xbe86f8f0	-0.263618
73	0xbdaa2b1f	-0.08309006
74	0x3a4695cb	0.00075754215
75	0xbe1114cf	-0.14168094
76	0xbd0ae2b2	-0.0339076
77	0xbe1c2083	-0.15246777
78	0xbe913b9d	-0.28365794
79	0x3e889c04	0.2668153
80	0xbde6af14	-0.11263862
81	0x3e62814e	0.22119638
82	0xbe7fade4	-0.24968678
83	0xbe42433e	-0.18970963
84	0x3c6eb3cb	0.014569233
85	0xbd87e05e	-0.066345915
86	0x3e99234f	0.2990975
87	0x3e81659a	0.25272828
88	0x3e889e5b	0.26683316
89	0x3e2bdd22	0.16783574
90	0xbd938978	-0.072039545
91	0xbcddc587	-0.027071727
92	0x3d02780c	0.031852767
93	0xbdc41a13	-0.09575286
94	0xbe1493a7	-0.1450945
95	0xbcff11c7	-0.031136407
96	0x3e873a50	0.26411676
97	0x3dca84a9	0.09888584
98	0x3dd207fc	0.10255429
99	0xbcd1de9c	-0.025618844
100	0xbca8b9fc	-0.020596497
101	0xbe51fc4b	-0.20506398
102	0xbe736fc2	-0.23773101
103	0x3d71d524	0.059041157
104	0xbddfbb1d	-0.10924361
105	0x3ea0f1a5	0.3143436
106	0xbe3d8e18	-0.18511236
107	0x3e848b30	0.25887442
108	0xbebb6be1	-0.36605743
109	0x3d805977	0.06267064
110	0xbda831af	-0.082126014
111	0x3e3a80d0	0.182132
112	0x3d434df5	0.047681767
113	0xbba71b67	-0.005099702
114	0x3c894efa	0.016761292
115	0xbc955632	-0.018229578
116	0x3ae0d41b	0.0017153056
117	0xbe166382	-0.14686397
118	0xbb9d8c14	-0.0048079584
119	0x3d97f657	0.074200325
120	0xbe616c49	-0.22013964
121	0x3dc7715d	0.09738419
122	0x3ea30d29	0.31845978
123	0xbe07accf	-0.13249515
124	0xbe7695ac	-0.24080533
125	0xbe1e0495	-0.15431435
126	0x3e82efa9	0.2557347
127	0x3e54e31a	0.20789757

model.1.weight f4 [128]
0	0x3f8394a9	1.0279742
1	0x3f67e024	0.90576386
2	0x3f7db854	0.9910939
3	0x3f72acc9	0.947949
4	0x3f964d55	1.174235
5	0x3f8fc5e0	1.1232262
6	0x3f71bf3f	0.94432443
7	0x3f869500	1.0514221
8	0x3f71352d	0.94221765
9	0x3f608b9d	0.8771303
10	0x3f74f9b7	0.95693535
11	0x3f61da30	0.8822355
12	0x3f7d73ae	0.9900464
13	0x3f64527b	0.89188355
14	0x3f6f96d2	0.9358951
15	0x3f6a7b1c	0.915941
16	0x3f5c4101	0.8603669
17	0x3f7861ca	0.97024214
18	0x3f6cca94	0.9249661
19	0x3f904cb1	1.1273404
20	0x3f9584fb	1.1681207
21	0x3f5f8fbc	0.87328696
22	0x3f8bb11f	1.0913428
23	0x3f6c7e69	0.92380387
24	0x3f849df2	1.0360701
25	0x3f68a736	0.90880144
26	0x3f85dcb8	1.0457983
27	0x3f676f23	0.90403956
28	0x3f931d6c	1.1493354
29	0x3f76cd9e	0.96407497
30	0x3f6cce7d	0.92502576
31	0x3f7c1c40	0.98480606
32	0x3f76e50e	0.9644326
33	0x3f859c5d	1.0438343
34	0x3f72e896	0.9488615
35	0x3f9d7894	1.2302423
36	0x3f5dc305	0.866257
37	0x3f87ef53	1.0619911
38	0x3f77cdb6	0.96798265
39	0x3f801e7b	1.0009302
40	0x3f775c53	0.9662525
41	0x3f7a9932	0.9789001
42	0x3f7ee159	0.99562603
43	0x3f63aef1	0.88938814
44	0x3f6ef468	0.93341684
45	0x3f824bcd	1.0179383
46	0x3f939ad2	1.1531622
47	0x3f6a0969	0.9142061
48	0x3f6c4e3c	0.92306876
49	0x3f6b250c	0.91853404
50	0x3f62fbc2	0.886654
51	0x3f696444	0.9116862
52	0x3f7938b1	0.9735213
53	0x3f7bced4	0.9836247
54	0x3f5894da	0.8460213
55	0x3f64046a	0.89069235
56	0x3f6e1e29	0.9301477
57	0x3f800ac4	1.0003285
58	0x3f6b2f14	0.9186871
59	0x3f8bcd81	1.092209
60	0x3f6288e3	0.8849012
61	0x3f6e631d	0.93119985
62	0x3f8d87df	1.105709
63	0x3f6d716f	0.9275121
64	0x3f5da13b	0.86574143
65	0x3f5e78d7	0.86903137
66	0x3f845341	1.0337907
67	0x3f6b2d5c	0.9186609
68	0x3f6231fd	0.88357526
69	0x3f835eb7	1.026328
70	0x3f64efa0	0.8942814
71	0x3f832c40	1.0247879
72	0x3f72ada1	0.94796187
73	0x3f7a9945	0.9789012
74	0x3f8b0941	1.0862199
75	0x3f7718dc	0.9652231
76	0x3f8a232a	1.0791981
77	0x3f8c3072	1.0952284
78	0x3f52f983	0.82411975
79	0x3f41bfbd	0.75683194
80	0x3f6afa60	0.9178829
81	0x3f944a05	1.1585089
82	0x3f81e678	1.0148458
83	0x3f6bda94	0.921304
84	0x3f5acd9e	0.85469997
85	0x3f7815db	0.9690835
86	0x3f5d95b3	0.8655655
87	0x3f6daad6	0.928388
88	0x3f8ded30	1.1088009
89	0x3f6e3df7	0.930633
90	0x3f818a0d	1.0120255
91	0x3f74c134	0.95607305
92	0x3f644e80	0.8918228
93	0x3f8071e4	1.0034757
94	0x3f5fd81b	0.87439126
95	0x3f5219b9	0.820705
96	0x3f52a6e6	0.82285917
97	0x3f4fffc7	0.8124966
98	0x3f7713eb	0.9651477
99	0x3f7f4f53	0.99730414
100	0x3f7a5e35	0.978
101	0x3f8a7940	1.0818253
102	0x3f964fcd	1.1743103
103	0x3f7b4e21	0.9816609
104	0x3f8a9faa	1.0829976
105	0x3f894830	1.0725155
106	0x3f67f29a	0.90604556
107	0x3f81e8c8	1.0149164
108	0x3f8c4a57	1.0960187
109	0x3f92a973	1.1457962
110	0x3f5bffe0	0.8593731
111	0x3f933ae7	1.150235
112	0x3f6af3a6	0.9177803
113	0x3f842a4e	1.032541
114	0x3f735bf5	0.9506219
115	0x3f7707e3	0.9649641
116	0x3f643856	0.8914846
117	0x3f78220c	0.9692695
118	0x3f7aade5	0.9792159
119	0x3f711baf	0.94182867
120	0x3f80528e	1.0025194
121	0x3f856298	1.0420713
122	0x3f559485	0.8342975
123	0x3f78cbd2	0.97186005
124	0x3f819e83	1.0126499
125	0x3f52067c	0.82041144
126	0x3f64ed7c	0.8942487
127	0x3f84dcfa	1.0379937

model.1.bias f4 [128]
0	0x3d1e67b5	0.03867312
1	0xbc1a1ac1	-0.009405793
2	0x3b64f8fd	0.0034938448
3	0xbd20d8a0	-0.03926909
4	0x3da66f9a	0.08126755
5	0x3dc2ba6a	0.09508212
6	0x3c0c947c	0.008580323
7	0x3df781e8	0.120853245
8	0xbd72930a	-0.05922226
9	0xbdc231e0	-0.09482169
10	0x3c8d5609	0.017252939
11	0xbcde3532	-0.027124975
12	0x3d71ae9e	0.05900442
13	0xbdb75b2b	-0.08952936
14	0xbaaa7138	-0.0013003713
15	0xbc569a62	-0.013098331
16	0xbdf2b123	-0.118501924
17	0xbce0fed4	-0.027465262
18	0x3d1579da	0.03649316
19	0x3d0e4ba5	0.03474011
20	0x3e4d37bd	0.20040794
21	0xbd4a1acf	-0.049341973
22	0x3d5fca9a	0.054636575
23	0xbd616cbe	-0.055035345
24	0x3d8868db	0.066606246
25	0xbc66dd7b	-0.014090891
26	0x3ce2de8e	0.027694013
27	0xbb8402a2	-0.004028634
28	0x3c662dd9	0.014049017
29	0x3bf13595	0.007361124
30	0xbd8513cf	-0.06497919
31	0x3ccee51c	0.025255732
32	0xbd407e80	-0.04699564
33	0xbb053c6e	-0.0020330208
34	0xbcb7997d	-0.022412056
35	0x3e4af30e	0.1981928
36	0xbe046dd3	-0.1293252
37	0x3d1e09c1	0.03858352
38	0xbd622d92	-0.05521924
39	0xbaa42d5b	-0.0012525724
40	0x3cb52c4e	0.022115853
41	0x3c7a1d95	0.015265842
42	0x3d2d2b91	0.042277876
43	0xbdb43e95	-0.08800999
44	0x3c62f809	0.0138530815
45	0xbb063ebc	-0.002048417
46	0x3d32a29a	0.0436121
47	0x3ce03750	0.027370125
48	0xba6df0bb	-0.0009076704
49	0x3d038b6d	0.03211539
50	0xbd873d6a	-0.06603511
51	0x3c71479c	0.014726546
52	0xbd7f1bac	-0.06228225
53	0x3cee6949	0.029102938
54	0xbdb9602a	-0.09051545
55	0xbadfb975	-0.001706882
56	0xbd1000b2	-0.035156913
57	0xbcb12ba3	-0.021627253
58	0xbe1256d0	-0.14290929
59	0x3dc0c70a	0.09412964
60	0xbd678046	-0.056518815
61	0x3c0ffc89	0.008788236
62	0x3db0ae0b	0.08626946
63	0xbdab77f7	-0.08372491
64	0xbd949c4a	-0.07256372
65	0xbd8c72c3	-0.068578266
66	0x3d195c6b	0.037441652
67	0xbd88520a	-0.06656273
68	0xbe3bf906	-0.18356714
69	0x3d9bd46c	0.07608876
70	0xbdc20837	-0.09474223
71	0x3d17fe38	0.037107676
72	0xbca946e7	-0.020663692
73	0xbc6b5194	-0.014362711
74	0x3d30c49b	0.043156248
75	0xbb236243	-0.0024930395
76	0x3ddbff4c	0.107420534
77	0x3e06a618	0.13149297
78	0xbe02095e	-0.12698886
79	0xbe3853b1	-0.18000676
80	0xbcf6e10e	-0.030136611
81	0x3d903b78	0.07042593
82	0xbcdd7b56	-0.02703635
83	0xbc83d6dc	-0.016093664
84	0xbe075435	-0.13215716
85	0xbd3d9f67	-0.046294596
86	0xbddde172	-0.10834016
87	0xbd9f2943	-0.07771542
88	0x3e48b4f4	0.19600278
89	0x3c0307f2	0.0079975
90	0xbc9324d0	-0.01796189
91	0xbc0b935f	-0.008519023
92	0xbd0ffd65	-0.035153765
93	0x3cab3f73	0.020904278
94	0x3bade1d3	0.0053064614
95	0xbe2bf98a	-0.1679441
96	0xbe03f1fa	-0.12885275
97	0xbdf6c9cc	-0.120502084
98	0xbe047610	-0.12935662
99	0x3d2d5f53	0.042327236
100	0xbdc9ab7f	-0.098471634
101	0x3d31c55a	0.0434011
102	0x3da5ba1f	0.080921404
103	0x3b070fbd	0.0020608746
104	0x3d7f8140	0.06237912
105	0x3dc4f194	0.0961639
106	0xbd92744c	-0.07151088
107	0x3bddb017	0.0067653763
108	0x3e3124b6	0.1729916
109	0x3dbc7130	0.09201276
110	0xbd936cc5	-0.071984805
111	0x3e3c417f	0.1838436
112	0xbcf93667	-0.030421449
113	0xbd5c20b3	-0.053742122
114	0x3c1e2277	0.009651772
115	0x3cb621e9	0.022232966
116	0xbd1d6d26	-0.03843417
117	0xbcea1b31	-0.028577419
118	0x3de594f7	0.112100534
119	0x3c9cafe2	0.019126836
120	0x3d3d4eed	0.046217848
121	0x3d87c92e	0.06630169
122	0xbd9816a1	-0.07426191
123	0x3cde27fc	0.027118675
124	0x3dcde7d6	0.10053985
125	0xbdbf57ef	-0.09342944
126	0xbdf4e380	-0.11957455
127	0x3d6a1e8e	0.057158045

model.1.running_mean f4 [128]
0	0xbf159b78	-0.5844035
1	0xbe399d12	-0.18126324
2	0xbdff8546	-0.12476592
3	0xbed2cdf1	-0.41172746
4	0x3e23da92	0.16001347
5	0xbecabe1f	-0.39598176
6	0xbeb91492	-0.36148506
7	0xbebd0c7d	-0.3692359
8	0x3e8f7549	0.2801917
9	0xbe85f740	-0.261652
10	0xbf3b0b29	-0.73063904
11	0x3e4d3c05	0.20042427
12	0x3f135e26	0.57565534
13	0x3f1ecbf9	0.6202999
14	0x3f105894	0.5638516
15	0xbf045b18	-0.517015
16	0xbefa99ac	-0.48945367
17	0x3eab6a1f	0.334794
18	0xbefbd8be	-0.491888
19	0x3e1e5ab1	0.15464284
20	0xbe8a1bb9	-0.26974276
21	0xbe77aee5	-0.2418781
22	0x3ea950b4	0.33069384
23	0xbe9f2fc5	-0.31091133
24	0xbdcce73f	-0.10005044
25	0x3e41bff2	0.18920878
26	0xbdbf51b3	-0.09341755
27	0xbd49c6f5	-0.049262006
28	0x3c876a40	0.016530156
29	0xbdaa08f5	-0.0830249
30	0xbdf0b4b8	-0.11753219
31	0x3cb21f5e	0.021743473
32	0xbec1fd45	-0.37888542
33	0xbe35b373	-0.17744236
34	0xbf1ae4a1	-0.6050511
35	0xbc2a8123	-0.010406765
36	0xbe029373	-0.1275156
37	0xbeaf20b6	-0.34204644
38	0xbf0e1728	-0.55504084
39	0xbc8d7830	-0.017269224
40	0x3e728472	0.23683336
41	0x3cfd2a25	0.030903885
42	0xbf012b89	-0.50457054
43	0xbf299874	-0.6624825
44	0x3e2bb574	0.16768438
45	0xbe015ce0	-0.12633085
46	0x3eb8bef7	0.36083195
47	0xbe14a66d	-0.14516611
48	0xbe1bd8a2	-0.15219358
49	0x3ebf7f0d	0.3740162
50	0x3f641999	0.8910156
51	0x3e6e29e8	0.23258173
52	0x3eac18ec	0.33612764
53	0xbec358b5	-0.38153616
54	0xbe83dd61	-0.25754836
55	0xbdb8356e	-0.08994566
56	0x3cc3feb8	0.02392517
57	0x3ced6769	0.028979974
58	0x3e1ac7f0	0.15115333
59	0xbe424adb	-0.18973868
60	0x3d9db979	0.07701392
61	0xbeaa9209	-0.3331454
62	0x3cd8dc20	0.026472151
63	0xbe9995fc	-0.29997241
64	0xbef1475e	-0.4712476
65	0xbe5c0fc6	-0.21490392
66	0xbe154c8b	-0.1457998
67	0x3f254039	0.6455112
68	0xbeb9a456	-0.3625819
69	0xbf4eeacb	-0.80827016
70	0x3f1a47d7	0.6026587
71	0x3e49980c	0.19686908
72	0xbeee336a	-0.465236
73	0xbe4e6dbf	-0.20159052
74	0xbec82dc9	-0.3909743
75	0x3e1f886d	0.15579386
76	0xbcd1d4e9	-0.025614219
77	0xbea6ef58	-0.3260448
78	0xbedcdc2f	-0.43136737
79	0x3e81d763	0.2535964
80	0xbe75cd08	-0.24003994
81	0x3e97ef18	0.29674602
82	0x3e2f639a	0.17127839
83	0xbf131ce0	-0.57465935
84	0xbde0ab41	-0.10970164
85	0xbe583713	-0.21114759
86	0x3f257769	0.6463533
87	0x3cd5566b	0.026042184
88	0xbc1d1b5a	-0.009589041
89	0x3e355e04	0.17711645
90	0xbe8137b9	-0.25237826
91	0xbd2d64b4	-0.042332366
92	0x3d76d078	0.060257405
93	0xbf1c567c	-0.61069465
94	0x3e8104df	0.2519903
95	0x3e50258c	0.20326823
96	0xbdd95ceb	-0.10613426
97	0xbd806919	-0.06270046
98	0x3e15de38	0.14635551
99	0xbeeee70a	-0.46660644
100	0x3e38d327	0.18049298
101	0xbec7e114	-0.39038908
102	0xbe9fafbe	-0.31188768
103	0x3f1222a5	0.57084113
104	0xbe8f61b4	-0.2800423
105	0x3ed2e343	0.41189012
106	0xbf14e777	-0.5816569
107	0x3ea9887c	0.33111942
108	0xbf2823f3	-0.65679854
109	0xbea8450c	-0.3286518
110	0xbe58bcd3	-0.2116578
111	0x3ea80fc9	0.32824543
112	0xbbfb3a25	-0.0076668435
113	0xbf47e85b	-0.7808892
114	0xbc923e02	-0.017851833
115	0xbdc69eec	-0.09698281
116	0x3f647a91	0.8924952
117	0xbf4652bb	-0.77469987
118	0xbeb1e970	-0.3474841
119	0xbe60579e	-0.21908423
120	0xbf221e17	-0.63327163
121	0x3e00cc11	0.12577845
122	0x3e929280	0.28627396
123	0x3e564b82	0.20927241
124	0xbf312e50	-0.6921129
125	0x3e127068	0.14300692
126	0x3d947221	0.07248331
127	0xbb7f30b8	-0.003893895

model.1.running_var f4 [128]
0	0x3d4aeb2a	0.049540676
1	0x3ce58574	0.028017737
2	0x3d5eb916	0.05437573
3	0x3d0fea16	0.03513535
4	0x3cddce3c	0.02707588
5	0x3ccef372	0.025262568
6	0x3ccb2155	0.024796167
7	0x3d12819e	0.035768144
8	0x3cf8728a	0.030328054
9	0x3c9857f9	0.018596636
10	0x3d4fbf32	0.050719447
11	0x3c91cfe4	0.017799325
12	0x3cbec1df	0.023285804
13	0x3c977c3b	0.018491855
14	0x3cc578b0	0.0241054
15	0x3c99dbb2	0.018781517
16	0x3c9fcc84	0.0195067
17	0x3cd4a5ca	0.02595796
18	0x3d161ae2	0.03664673
19	0x3d1ee404	0.03879167
20	0x3d693998	0.05693969
21	0x3d184d4e	0.0371831
22	0x3d73c7f3	0.05951686
23	0x3c8192cd	0.01581707
24	0x3d4fc691	0.050726477
25	0x3d04ca8c	0.032419726
26	0x3d73af2f	0.05949324
27	0x3cfd0cb9	0.030889856
28	0x3c94e716	0.018176597
29	0x3d4979fd	0.049188603
30	0x3d985264	0.0743759
31	0x3d1abe93	0.037779402
32	0x3cc7355f	0.024317442
33	0x3c612e31	0.013743923
34	0x3d0ef32d	0.03489988
35	0x3d07d1f5	0.033159215
36	0x3cb80f9b	0.022468379
37	0x3d1f2973	0.03885789
38	0x3d3d7c04	0.04626085
39	0x3d15f025	0.036605973
40	0x3cade762	0.021228496
41	0x3cd28734	0.025699235
42	0x3cf52213	0.029923474
43	0x3d13f30b	0.036120456
44	0x3d0e8a26	0.034799717
45	0x3c778c4b	0.015109132
46	0x3c775074	0.015094865
47	0x3ca9555e	0.020670589
48	0x3c44e9f4	0.012018669
49	0x3ca38de7	0.019965125
50	0x3cb2b2d5	0.02181379
51	0x3d051cdb	0.03249822
52	0x3ca0c5c9	0.019625561
53	0x3d240ed4	0.040053204
54	0x3ce39b72	0.027784083
55	0x3d22c495	0.039738256
56	0x3cbf34c2	0.023340587
57	0x3d05e1ff	0.03268623
58	0x3c9fb81b	0.019496968
59	0x3d360378	0.0444369
60	0x3c925aa2	0.017865483
61	0x3cbc5c99	0.022993373
62	0x3c7876b6	0.015165022
63	0x3cf5de9e	0.030013379
64	0x3cfc8e9a	0.030829716
65	0x3ca63d95	0.020293036
66	0x3c352881	0.01105702
67	0x3c8f6a84	0.017506845
68	0x3cef01f8	0.029175743
69	0x3cbbefa3	0.022941416
70	0x3ca043df	0.019563613
71	0x3d2c5846	0.04207637
72	0x3ccc4a8a	0.024937887
73	0x3d0724d3	0.032994103
74	0x3d36cebc	0.04463075
75	0x3d3da4fd	0.046299923
76	0x3d1449bf	0.036203142
77	0x3d94ca52	0.07265152
78	0x3d402d60	0.046918273
79	0x3d76fbb8	0.06029865
80	0x3d4e8666	0.05042114
81	0x3da6f68e	0.08152495
82	0x3d6a1e89	0.057158027
83	0x3c9e9ac1	0.019360902
84	0x3d0d4b68	0.03449574
85	0x3c7053a0	0.014668375
86	0x3d189b94	0.037257746
87	0x3cf9833d	0.030458087
88	0x3d41b923	0.0472957
89	0x3cef268a	0.029193182
90	0x3cbaf702	0.02282286
91	0x3cbd4d82	0.023108248
92	0x3caed8cd	0.021343613
93	0x3d3c652a	0.045994915
94	0x3d4a38e3	0.049370658
95	0x3d03c81a	0.032173254
96	0x3cfa0d2c	0.030523859
97	0x3d142169	0.036164675
98	0x3d49b8aa	0.049248375
99	0x3d080928	0.033211857
100	0x3cd4d7b6	0.025981765
101	0x3d9aa14e	0.07550298
102	0x3d420476	0.047367536
103	0x3d14cec5	0.036330003
104	0x3ca2cbc4	0.019872554
105	0x3d5553a1	0.052081708
106	0x3cdc3e06	0.026885044
107	0x3c8e3105	0.017357359
108	0x3ce2cfb5	0.027686933
109	0x3d34c6f0	0.044135034
110	0x3ca22417	0.0197926
111	0x3d138bf9	0.03602216
112	0x3d40c827	0.04706588
113	0x3d1e091d	0.03858291
114	0x3d65e63b	0.056127768
115	0x3d0d8798	0.03455314
116	0x3cc73519	0.024317311
117	0x3d481bb0	0.04885453
118	0x3ce2aa38	0.027669057
119	0x3d4db6b6	0.050223075
120	0x3cd580f8	0.026062474
121	0x3d12b190	0.035813868
122	0x3cdc1f96	0.02687053
123	0x3cfb382a	0.03066643
124	0x3d320881	0.04346514
125	0x3cb2eb40	0.021840692
126	0x3c6d3621	0.014478237
127	0x3c9b017d	0.018921608

model.4.weight f4 [64, 128]
0	0xbe3f1bca	-0.18662944
1	0xbdcf29d8	-0.10115403
2	0xbda80b96	-0.08205335
3	0x3d28a85b	0.04117618
4	0xbd68590d	-0.05672555
5	0xbd6a6fc1	-0.057235483
6	0x3d8cbdc5	0.06872133
7	0xbddf44f1	-0.109018214
8	0x3d991489	0.0747462
9	0xbcf685d4	-0.030093111
10	0x3e22e6a0	0.15908289
11	0x3e119b22	0.14219335
12	0xbdd72d22	-0.10506655
13	0x3c783a0e	0.01515056
14	0x3e3174ee	0.17329761
15	0xbd7b22aa	-0.061312355
16	0xbda59ff4	-0.08087149
17	0xbd7bf809	-0.06151584
18	0x3cddcae0	0.027074277
19	0xbd404c59	-0.04694781
20	0xbe27c045	-0.16381939
21	0x3d4913b7	0.049091067
22	0x3df0b404	0.11753085
23	0x3c134925	0.008989607
24	0x3d98bd91	0.07458032
25	0xbcb49a94	-0.022046365
26	0x3dde8c7c	0.10866639
27	0x3d79cb43	0.06098486
28	0x3d19a5ec	0.03751175
29	0x3dc9aef3	0.09847822
30	0x3d7f6609	0.062353168
31	0xbc273713	-0.010206002
32	0xbe0ba51e	-0.13637206
33	0xbe04e3ab	-0.12977473
34	0x3b25a72d	0.0025276646
35	0x3d17dc15	0.03707512
36	0xbd7c180b	-0.061546367
37	0x3d4cd62b	0.050008934
38	0x3e4a28fa	0.19742194
39	0xbdf19fdd	-0.117980696
40	0xbdadb7b3	-0.084823035
41	0x3e4b71c9	0.19867624
42	0x3d4c0253	0.049806904
43	0xbc654191	-0.013992683
44	0x3d097dc6	0.033567213
45	0x3cf99a8e	0.030469205
46	0x3c4b60d7	0.012413225
47	0x3dcd75c2	0.10032226
48	0xbbcc9caa	-0.0062442617
49	0x3d929a39	0.07158322
50	0x3c870356	0.016481083
51	0x3d1381d8	0.0360125
52	0x3d56efc2	0.052474745
53	0x3d15f20a	0.03660778
54	0xbcc7566b	-0.0243332
55	0xbdca09d1	-0.098651536
56	0x3d79022f	0.060793098
57	0xbd794c3f	-0.06086373
58	0x3df0a4ef	0.117502086
59	0x3ce62533	0.02809391
60	0x3c897537	0.016779525
61	0xbdae5127	-0.08511572
62	0x3dbae466	0.09125595
63	0xbe317dc6	-0.17333135
64	0x3d657cbf	0.05602717
65	0x3d005ec6	0.031340383
66	0x3e2d17ac	0.16903561
67	0xbd72ee53	-0.059309315
68	0xbd6972b0	-0.05699414
69	0x3d836a21	0.06416727
70	0xbdafe38e	-0.085883245
71	0xbe21c824	-0.15799004
72	0x3dbe1ac2	0.092824474
73	0x3de87674	0.11350718
74	0x3d518c59	0.051159237
75	0x3d2b3d64	0.041806594
76	0xbb8569b9	-0.004071441
77	0x3e0c6e2d	0.13713904
78	0x3d4e979d	0.05043756
79	0xbd0d0345	-0.034426946
80	0xbbbace92	-0.0057008946
81	0x3d1e9d98	0.03872451
82	0x3b78af73	0.0037946373
83	0xbcb17c50	-0.021665722
84	0xbdbdda0c	-0.09270105
85	0xbdc5e8c8	-0.0966354
86	0xbc74b2a4	-0.014935169
87	0xbd3d5975	-0.04622789
88	0xbde1b96e	-0.11021696
89	0xbde3a773	-0.11115923
90	0x3ca8d054	0.020607151
91	0x3e05a816	0.13052401
92	0x39e8a03a	0.00044369866
93	0x3dd61549	0.104532786
94	0x3ce7940b	0.028268835
95	0x3ce2c6d7	0.027682705
96	0xbcf4be7b	-0.029875984
97	0x3cd5ba44	0.026089795
98	0xbcc94aaa	-0.024571735
99	0x3d03817d	0.03210591
100	0xbb8aaaf1	-0.0042318036
101	0x3d5d7a85	0.05407192
102	0x3c9c29a6	0.019062828
103	0xbca9224b	-0.020646235
104	0xbe504dd0	-0.20342183
105	0xbcff0c5e	-0.031133827
106	0xbd1e4abb	-0.038645487
107	0xbd771b4f	-0.060328778
108	0xbccc6035	-0.024948219
109	0xbdfe9667	-0.12431031
110	0x3cf710eb	0.030159434
111	0xbe0c1bbb	-0.13682453
112	0xbdbb1214	-0.091343075
113	0x3d22e793	0.039771628
114	0x3e2a2d32	0.16618803
115	0xbe24f017	-0.16107212
116	0xbc75aa60	-0.014994234
117	0x3b31571e	0.0027059983
118	0x3daeb812	0.085312024
119	0xbdd319da	-0.10307665
120	0xbcead46e	-0.028665747
121	0xbe2a9c7f	-0.16661261
122	0xbcf29d72	-0.029616091
123	0xbd038162	-0.03210581
124	0x3d208995	0.03919371
125	0x3cca325c	0.024682216
126	0xbd95e752	-0.073195115
127	0xbd03cc3c	-0.032177195
128	0x3ae1dfda	0.0017232851
129	0x3d9f1b4e	0.0776888
130	0xbcf2ee7f	-0.02965474
131	0xbcb273dc	-0.021783762
132	0x3d950bcf	0.07277643
133	0xbd020087	-0.031738784
134	0x3d64fb77	0.055903878
135	0xbd013dbc	-0.031553015
136	0xbcbe193e	-0.023205396
137	0x3d4bf1ed	0.049791265
138	0x3ddba3ea	0.107246235
139	0x3ca2be08	0.019866005
140	0x3e149005	0.14508064
141	0xbd2e9b77	-0.04262873
142	0xbd5b0cae	-0.05347889
143	0xbd0572f2	-0.032580324
144	0x3bdf19dd	0.006808503
145	0x3dddd82f	0.108322494
146	0x3cd9a9f1	0.026570292
147	0xbd994ea0	-0.074857
148	0x3d94ac64	0.072594434
149	0xbdbcd1ed	-0.09219728
150	0xbde8e8fe	-0.11372565
151	0xbd9a45e2	-0.0753286
152	0x3d6a6f24	0.0572349
153	0xbc98ac8d	-0.018636966
154	0xbd778b0a	-0.060435332
155	0x3c2f73f7	0.0107088005
156	0x3aba91bd	0.0014234107
157	0xbc95ad3f	-0.018271087
158	0x3d3fd384	0.046832576
159	0x3d2a7150	0.04161197
160	0x3d34469e	0.04401266
161	0x3d2a20c9	0.041535173
162	0x3db24af6	0.08705704
163	0x3ce2ee78	0.027701601
164	0xbcb68f1b	-0.022285035
165	0xbab385bd	-0.0013696473
166	0x3de81dc2	0.11333801
167	0x3a29d5ef	0.0006478717
168	0x3d9699af	0.073535316
169	0x3c8e4237	0.017365558
170	0xbdf81252	-0.12112869
171	0x3dcf3239	0.10117001
172	0x3d7b69a5	0.061380047
173	0x3d32320b	0.043504756
174	0x3ddef2a8	0.10886127
175	0xbd2e01b0	-0.042482078
176	0x3d90f3a7	0.07077723
177	0x3d641202	0.055681236
178	0xbd9ada4e	-0.075611696
179	0x3d192ab0	0.037394226
180	0xbd8bcc99	-0.06826133
181	0x3d51733e	0.051135294
182	0x3de214a4	0.11039093
183	0x3b9f0305	0.004852655
184	0xbcb85a72	-0.022504065
185	0x3da9887c	0.082779855
186	0xbd831472	-0.06400384
187	0xbc8ef453	-0.017450487
188	0xbc3fbc21	-0.011702568
189	0x3e228cd8	0.1587404
190	0xbdc89d05	-0.09795574
191	0x3d774e96	0.06037768
192	0xbde5833f	-0.11206674
193	0xbd8f7868	-0.070053875
194	0xbd98e97c	-0.074664086
195	0xbd50c773	-0.05097146
196	0x3e087372	0.13325289
197	0x3e000cf4	0.12504941
198	0xbd9e18c6	-0.07719569
199	0x3e366656	0.17812476
200	0x3d9d3606	0.0767632
201	0x3d8fe87a	0.07026763
202	0xbd152524	-0.036412373
203	0x3e0775f3	0.13228588
204	0x3d90ce18	0.07070559
205	0xbd7402cb	-0.059572976
206	0xbe016ba1	-0.12638713
207	0x3dde508c	0.10855207
208	0x3ce28467	0.027651025
209	0xbdf2c756	-0.118544266
210	0xbd443def	-0.047910627
211	0x3e0dcd2f	0.13847803
212	0xbdeb010d	-0.1147481
213	0x3e2f5e2d	0.17125769
214	0x3dbca1ab	0.09210523
215	0x3e1c8f3f	0.15289019
216	0x3e1236db	0.14278738
217	0xbdaa90a4	-0.08328369
218	0x3b5d8a9c	0.0033804541
219	0xbd477fb8	-0.048705786
220	0x3da211ed	0.07913575
221	0x3bbbd898	0.005732607
222	0xbd7299de	-0.05922877
223	0xbe119a88	-0.14219105
224	0xbdb7b8f4	-0.08970824
225	0xbd894b82	-0.06703855
226	0xbe055a9a	-0.13022843
227	0x3cd7b946	0.026333462
228	0xbdbe1143	-0.09280636
229	0xbd08aeed	-0.033369947
230	0x3c89473e	0.016757604
231	0x3dc1a6ee	0.094556674
232	0xbaecb895	-0.0018060381
233	0xbde251ac	-0.11050734
234	0x3d8e08f3	0.06935301
235	0xbdf563f0	-0.11981952
236	0x3ddc0973	0.1074399
237	0x3d83862b	0.06422075
238	0xbd2c709a	-0.042099573
239	0x3db9f1b3	0.090793036
240	0xbd352899	-0.04422817
241	0x3c62014e	0.013794256
242	0xbd3de66b	-0.04636232
243	0xbcbe6ee7	-0.023246242
244	0x3d8c72c6	0.06857829
245	0x3d835417	0.06412523
246	0xbe152a33	-0.14566879
247	0xbd5397d0	-0.05165845
248	0x3d80509d	0.06265376
249	0x3e63827a	0.22217742
250	0x3c620444	0.013794962
251	0xbd149296	-0.036272608
252	0x3c5c5e43	0.013450208
253	0x3cef845b	0.029237917
254	0xbd9790cb	-0.07400664
255	0xbd752a7a	-0.059854962

model.4.bias f4 [64]
0	0xbcbdcf0c	-0.023170017
1	0xbd6cf571	-0.05785126
2	0x3d063849	0.03276852
3	0x3d86fbc5	0.0659099
4	0x3da8160d	0.08207331
5	0xbce80427	-0.028322292
6	0x3d0913cf	0.033466157
7	0x3d286552	0.04111225
8	0xbdad1002	-0.08450319
9	0x3bb2bdbc	0.005454747
10	0xbd9341ed	-0.07190309
11	0x3d118197	0.035523977
12	0x3bf9666c	0.0076110866
13	0x3d3e520c	0.046464965
14	0xbd6f938a	-0.058490314
15	0x3d0f1c5c	0.034939155
16	0x3d84a361	0.064764746
17	0x3c1c0d3a	0.009524638
18	0xbd64f40f	-0.055896815
19	0x3b3a2e6f	0.0028409024
20	0xbd672012	-0.05642707
21	0xbcc3fcdf	-0.02392429
22	0xbd45450f	-0.048161563
23	0xbb6a49ae	-0.0035749483
24	0xbd973146	-0.07382445
25	0x3c679e71	0.0141368965
26	0x3db14f36	0.086576864
27	0x3b7f1d35	0.003892732
28	0x3d30d60c	0.04317288
29	0x3d25a907	0.0404444
30	0x3dc28210	0.09497464
31	0x3c7f994e	0.0156005155
32	0xbd423923	-0.04741777
33	0xbdb5e7bd	-0.08882091
34	0x3d064f41	0.032790426
35	0x3d172bb9	0.03690693
36	0x3ce7b9c8	0.02828683
37	0xbc74d699	-0.014943742
38	0xbba920b5	-0.0051613697
39	0xbd00a6bc	-0.03140901
40	0xbd3859be	-0.04500746
41	0x3a3c246b	0.00071770576
42	0xbd7b46a0	-0.06134665
43	0xbd39b8f3	-0.045342397
44	0x3d88bfad	0.06677184
45	0x3d843271	0.064549334
46	0x3d3c237d	0.04593228
47	0xbd88fbb1	-0.06688631
48	0xbda014a4	-0.07816437
49	0xbd8a160d	-0.06742487
50	0x3cf49a9c	0.02985888
51	0xbd46626b	-0.048433702
52	0xbd504baa	-0.05085341
53	0xbd31d7b8	-0.043418616
54	0x3cfc912e	0.030830946
55	0x3d4646cb	0.048407357
56	0x3d969ad7	0.07353752
57	0x3d749601	0.059713367
58	0x3c9cb466	0.01912899
59	0xbdad1ecc	-0.0845314
60	0xbcd9186e	-0.026500907
61	0xbc28b174	-0.010296214
62	0x3d54adf3	0.051923703
63	0xbd487778	-0.04894206

model.5.weight f4 [64]
0	0x3f757d6e	0.95894516
1	0x3f6c477c	0.92296576
2	0x3f6d66a8	0.92734766
3	0x3f6b5074	0.91919637
4	0x3f8c2a20	1.0950356
5	0x3f73dbc4	0.9525721
6	0x3f7a6b49	0.97819954
7	0x3f8c5afb	1.0965265
8	0x3f63af31	0.88939196
9	0x3f86a09f	1.0517768
10	0x3f972677	1.1808614
11	0x3f7a4f1d	0.9777697
12	0x3f6fff0b	0.9374854
13	0x3f827ecc	1.0194945
14	0x3f693725	0.9109977
15	0x3f6fd2a6	0.936808
16	0x3f7bd326	0.9836906
17	0x3f806f02	1.0033877
18	0x3f717807	0.9432377
19	0x3f7b3424	0.98126435
20	0x3f83655d	1.0265309
21	0x3f6a23e9	0.91461045
22	0x3f6e2481	0.9302445
23	0x3f7a79ab	0.978419
24	0x3f69e8c8	0.9137082
25	0x3f85e74e	1.0461214
26	0x3f760060	0.9609432
27	0x3f6884bd	0.9082754
28	0x3f73d39e	0.9524478
29	0x3f74ca21	0.95620924
30	0x3f5c7d37	0.8612856
31	0x3f774061	0.9658261
32	0x3f66c9d9	0.90151745
33	0x3f7f1236	0.9963716
34	0x3f7f007a	0.996101
35	0x3f8d94e8	1.1061068
36	0x3f661f2b	0.8989131
37	0x3f9711bd	1.1802288
38	0x3f71c1bf	0.9443626
39	0x3f721420	0.9456196
40	0x3f814e8f	1.0102099
41	0x3f9d58fe	1.2292783
42	0x3f68c4e8	0.90925455
43	0x3f83313b	1.0249399
44	0x3f78c45a	0.9717461
45	0x3f770ab4	0.96500707
46	0x3f7da714	0.99083066
47	0x3f7abb61	0.9794217
48	0x3f80a644	1.005074
49	0x3f70ae43	0.940159
50	0x3f60f75f	0.8787746
51	0x3f797c0f	0.97454923
52	0x3f8c828b	1.0977339
53	0x3f720d41	0.94551474
54	0x3f776f83	0.9665453
55	0x3f811425	1.0084273
56	0x3f725918	0.94667196
57	0x3f7da07d	0.9907301
58	0x3f5af859	0.855352
59	0x3f8cdd6c	1.1005073
60	0x3f6c25fc	0.9224546
61	0x3f6fef17	0.937242
62	0x3f711a07	0.9418034
63	0x3f69e70a	0.9136816

model.5.bias f4 [64]
0	0xbc2b5c8e	-0.0104590785
1	0xbdae16d1	-0.08500446
2	0x3cb5ce70	0.022193164
3	0x3c67797e	0.014128087
4	0x3e29b2ab	0.16572063
5	0xbd7f8374	-0.062381223
6	0xbd2b747e	-0.041859142
7	0x3dcd79ac	0.10032973
8	0x3cf08ebb	0.029364934
9	0x3d236d7b	0.03989933
10	0x3e5a275f	0.21304081
11	0xbc8759ce	-0.016522314
12	0xbc6e7e35	-0.014556457
13	0x3c92e280	0.01793027
14	0xbd05868e	-0.032599024
15	0xbd81d3ad	-0.06339202
16	0xbc050989	-0.008119949
17	0xbd0dd385	-0.03462555
18	0xbdbde270	-0.09271705
19	0x3d76a5f5	0.060216863
20	0x3cb75a21	0.022381844
21	0x3ca59cb8	0.02021633
22	0xbd2b1204	-0.041765228
23	0x3d25e254	0.040499046
24	0xbc0447d7	-0.008073769
25	0x3d54522d	0.05183618
26	0xbc8ac0c3	-0.01693762
27	0xbcbe7c1a	-0.023252536
28	0x3d69d578	0.057088345
29	0x3c8dc40e	0.0173054
30	0x3c7e1ef3	0.015510309
31	0xbcfaff40	-0.03063929
32	0x3d8494cd	0.06473694
33	0xbc2959c7	-0.010336346
34	0x3d1e0b66	0.03858509
35	0xbb7f0bed	-0.003891702
36	0x3c947248	0.0181209
37	0x3e46c6bb	0.19411747
38	0xbd220e14	-0.039564207
39	0xbdb18fca	-0.08670004
40	0x3da0aca1	0.07845426
41	0x3da0214c	0.07818851
42	0xbd6d890e	-0.057992034
43	0x3d35ee23	0.044416558
44	0x3d2d87fd	0.042366017
45	0x3d19ec28	0.03757873
46	0x3d4223c8	0.047397405
47	0x3dbbca86	0.09169488
48	0xbce02671	-0.02736208
49	0x3cb07409	0.021539705
50	0xbdb276a5	-0.08714036
51	0x3cb2edca	0.021841902
52	0x3cd7ebcc	0.026357554
53	0xbc6128b9	-0.013742619
54	0x3b1da65e	0.0024055461
55	0xbcb3a78b	-0.021930477
56	0xbd65abfa	-0.056072213
57	0x3d2d95a6	0.042379044
58	0xbdd0984b	-0.101852976
59	0x3e06bb51	0.13157393
60	0xbcd29859	-0.02570741
61	0xbcd33eac	-0.02578672
62	0xbdd7237a	-0.105048135
63	0x3d538b35	0.05164643

model.5.running_mean f4 [64]
0	0xbe53f3a8	-0.20698416
1	0x3eed2974	0.4632069
2	0xbed1578e	-0.4088711
3	0xbe9df1c5	-0.30848518
4	0x3f08dfde	0.53466594
5	0xbe0fb9a0	-0.14035654
6	0x3ee6bd79	0.4506643
7	0x3f5a1c51	0.8519946
8	0x3d1b5cd2	0.037930317
9	0xbe4e8939	-0.20169534
10	0xbf199511	-0.5999308
11	0xbe886148	-0.2663672
12	0xbf022ef8	-0.5085292
13	0xbe8e85e0	-0.27836514
14	0xbf2cd95f	-0.6751918
15	0x3dfb39e0	0.12266898
16	0x3ec5a5aa	0.38602954
17	0x3d8cb163	0.06869771
18	0xbe54364c	-0.20723838
19	0x3e58db82	0.21177486
20	0x3f38dd78	0.72212934
21	0xbddf5178	-0.10904211
22	0xbd228abb	-0.039683085
23	0x3ccf7956	0.025326412
24	0xbf1f3cfa	-0.6220242
25	0xbec2ac67	-0.38022158
26	0x3d3bda1b	0.0458623
27	0xbb89ff4e	-0.004211343
28	0xbee1b5c7	-0.44083998
29	0xbe643196	-0.2228454
30	0xbe094ad3	-0.1340745
31	0xbe75718a	-0.23969093
32	0x3e5ca30a	0.2154657
33	0xbf20e923	-0.6285574
34	0xbdeda90d	-0.116045095
35	0x3f1ec1a9	0.6201425
36	0x3c8fb31f	0.017541466
37	0xbd9b4879	-0.075821824
38	0x3d9f4e5d	0.077786185
39	0xbed9cd90	-0.42539644
40	0x3f10d899	0.565805
41	0x3e87e427	0.26541254
42	0x3e6a666e	0.22890636
43	0xbec0d13c	-0.37659633
44	0xbf107590	-0.56429386
45	0x3ef39ee1	0.47582152
46	0xbe20ba23	-0.15696006
47	0x3e8d5b59	0.27608755
48	0xbee68235	-0.45021215
49	0xbf42413f	-0.7588081
50	0x3f87eff4	1.0620103
51	0xbe801c2c	-0.25021493
52	0x3e9410a0	0.28918934
53	0xbee30c54	-0.44345343
54	0x3d5cd371	0.053912584
55	0x3e2be165	0.167852
56	0xbed90deb	-0.4239343
57	0x3e41462a	0.18874422
58	0xbd63727b	-0.0555291
59	0xbea00d50	-0.31260157
60	0xbefeca54	-0.4976374
61	0xbf504883	-0.81360644
62	0x3ebfdb8b	0.37472185
63	0xbf738155	-0.9511922

model.5.running_var f4 [64]
0	0x409fffab	4.9999595
1	0x4043499a	3.0513673
2	0x404ccd16	3.2000175
3	0x4071e0fc	3.779357
4	0x4086289d	4.1924577
5	0x4072f98b	3.796481
6	0x40092077	2.1426065
7	0x40c160fa	6.043088
8	0x401c6c2b	2.444102
9	0x409df66e	4.9363317
10	0x40e6a3a0	7.2074738
11	0x402dddcd	2.7166626
12	0x4081a638	4.0515404
13	0x405b7281	3.4288638
14	0x40384a73	2.879544
15	0x4037943a	2.868422
16	0x4054be6e	3.324123
17	0x4080f59a	4.0299807
18	0x401119e6	2.2672057
19	0x409fc9ff	4.9934077
20	0x405ac17c	3.4180593
21	0x3fd1dca6	1.6395462
22	0x4024f983	2.577729
23	0x40993196	4.787303
24	0x4065e4f0	3.5920982
25	0x40b8e850	5.7783585
26	0x408e09d4	4.4386997
27	0x4025149e	2.5793834
28	0x40a77f07	5.2342563
29	0x408783c7	4.234836
30	0x3fc8b4c3	1.5680164
31	0x40479744	3.1186075
32	0x3fc25003	1.5180668
33	0x409e9cc5	4.956637
34	0x405c0212	3.4376264
35	0x403be467	2.9358156
36	0x40b4cd69	5.6500745
37	0x40b9ed8c	5.8102474
38	0x401da83b	2.463393
39	0x3ff4b551	1.9117833
40	0x404901fd	3.1407464
41	0x40ac0f35	5.3768563
42	0x3ffe74ec	1.9879432
43	0x406ff4b7	3.7493112
44	0x3fc5675f	1.5422171
45	0x407076e3	3.7572563
46	0x4038ac1d	2.885505
47	0x400a14ac	2.1575117
48	0x403821de	2.877067
49	0x4024f6ed	2.5775712
50	0x40885691	4.260567
51	0x40c80146	6.2501554
52	0x408b3c73	4.351129
53	0x40382478	2.8772259
54	0x4061cdec	3.5281935
55	0x40bba3e8	5.863758
56	0x40929d23	4.5816817
57	0x407eacb5	3.9792912
58	0x3fe071e4	1.7534757
59	0x405d33cb	3.4562862
60	0x405de3b7	3.4670236
61	0x3fd921c0	1.6963425
62	0x3feba9bb	1.8411173
63	0x4033ec42	2.811295

model.8.weight f4 [32, 64]
0	0xbddf6225	-0.109073915
1	0xbd3ca668	-0.046057135
2	0xbbfc6e92	-0.0077036107
3	0x3de154f7	0.11002534
4	0xbe9c973f	-0.30584142
5	0xbd8e20d2	-0.06939854
6	0x3dc6486a	0.09681781
7	0xbe58668f	-0.21132873
8	0x3c8f7bc0	0.017515063
9	0xbbab8ae1	-0.0052350615
10	0xbe55d9fe	-0.20883939
11	0x3d3452d6	0.04402431
12	0xbd0f563a	-0.03499434
13	0x3d8e0c03	0.06935885
14	0xbd18c471	-0.037296716
15	0x3cd3a098	0.025833413
16	0xbd134cdb	-0.035961967
17	0xbe1b66e8	-0.15175974
18	0x3e390b5b	0.18070738
19	0x3dc4169c	0.09574625
20	0xbd4ff3e5	-0.050769705
21	0xbc1456f1	-0.009053932
22	0xba9ebb38	-0.0012110239
23	0xbdcfbd0e	-0.10143481
24	0x3da9cb62	0.08290745
25	0x3e146a3d	0.14493652
26	0xbb368964	-0.0027852887
27	0xba7abaf4	-0.00095646014
28	0xbdd345ba	-0.10316034
29	0x3ddf4a08	0.10902792
30	0xbd4e390e	-0.05034738
31	0xbe68e219	-0.227425
32	0x3d726450	0.059177697
33	0x3e0345f9	0.12819661
34	0xbe2f9a55	-0.17148717
35	0xbe0754e9	-0.13215984
36	0x3d9afe1b	0.07567998
37	0xbe3766d9	-0.17910327
38	0x3de1c3d6	0.11023681
39	0x3d3a24f0	0.045445383
40	0x3c54f01c	0.0129967
41	0xbe7a7631	-0.24459149
42	0x3e02d0be	0.12774941
43	0xbe8684a4	-0.26273072
44	0xbb040352	-0.002014358
45	0xbdcbc40b	-0.099495016
46	0xbdd17d01	-0.10228921
47	0xbe521ce5	-0.20518835
48	0xbcc6a5f3	-0.024249053
49	0x3d65027b	0.05591057
50	0xbd96e858	-0.07368535
51	0x3cea41bf	0.028595803
52	0x3c1a753a	0.009427363
53	0xbd9908f5	-0.074724115
54	0x3d895a16	0.06706636
55	0x3d546254	0.051851586
56	0xbd3397b9	-0.043845866
57	0x3d114dc6	0.03547456
58	0xbe238e6d	-0.159723
59	0x3be27a84	0.0069115777
60	0x3d9891ce	0.07449685
61	0xbe195c75	-0.14976676
62	0x3da5c6ef	0.08094584
63	0xbd8f6304	-0.070013076
64	0xbe92e560	-0.28690624
65	0x3d9cf16d	0.07663236
66	0x3d2c8a7b	0.042124253
67	0x3d337357	0.04381117
68	0x3da1a84f	0.078934304
69	0x3dd26588	0.10273272
70	0x3dc8c17b	0.098025285
71	0x3d7f4602	0.062322624
72	0xbe5a1324	-0.21296364
73	0xbd963413	-0.07334151
74	0xbe1ee634	-0.15517503
75	0xbdaf9092	-0.085724965
76	0xbd751769	-0.05983678
77	0xbd71e7ad	-0.059058834
78	0x3e2c715a	0.16840115
79	0x3d8ba31f	0.06818222
80	0xbce7601c	-0.02824407
81	0x3cd8d8bc	0.026470535
82	0x3d599d6b	0.05312864
83	0xbda7fbfc	-0.08202359
84	0x3d0266d3	0.031836342
85	0x3deb5508	0.11490828
86	0x3d1771fa	0.03697393
87	0xbde46643	-0.111523174
88	0x3ced58d1	0.028973015
89	0x3ce74da9	0.028235273
90	0xbe49ae8b	-0.19695489
91	0x3c2bb496	0.010480067
92	0xbda4be6c	-0.080441326
93	0xbe0236fd	-0.12716289
94	0xbe000a45	-0.12503918
95	0xbd5e0f02	-0.05421353
96	0x3d94f9f9	0.07274241
97	0xbdfedcdc	-0.12444469
98	0xbd4a0989	-0.0493255
99	0xbe8370ef	-0.256721
100	0x3cb7df63	0.022445386
101	0xbd9bc8d1	-0.07606662
102	0xbb8bf542	-0.0042711804
103	0x3e0394ef	0.12849782
104	0x3d90dd47	0.07073455
105	0x3dc83904	0.097765
106	0x3ddc7766	0.10764961
107	0x3d985534	0.07438126
108	0xbd38a01f	-0.04507458
109	0xbebc53c4	-0.36782658
110	0xbced4183	-0.028961902
111	0xbd7babb3	-0.061443042
112	0xbe082980	-0.13297081
113	0x3cc655fc	0.024210922
114	0xbcb30a3e	-0.02185547
115	0x3d8df00c	0.06930551
116	0x3d3dee4e	0.046369843
117	0xbb2fe2d0	-0.0026838072
118	0xbce51dff	-0.027968405
119	0xbe90f44a	-0.28311378
120	0x3db03cff	0.08605384
121	0xbb99e22c	-0.0046961512
122	0x3dd534f7	0.10410493
123	0xbe835261	-0.25648788
124	0xbdb33bac	-0.08751616
125	0x3cb71f40	0.022353768
126	0x3d6f9672	0.058493085
127	0xbe3cdf3c	-0.18444532
128	0x3e0fae95	0.14031442
129	0x3d0d0c5c	0.034435615
130	0xbd3880ea	-0.045044817
131	0xbd458419	-0.04822168
132	0xba490e3b	-0.0007669662
133	0x3e353b57	0.17698418
134	0x3cdd52d6	0.027017038
135	0xbcec63cb	-0.028856179
136	0x3e4907ee	0.19631931
137	0xbd7892f9	-0.06068704
138	0xbe395581	-0.18099023
139	0xbbff4870	-0.0077906176
140	0x3dd9f805	0.10643009
141	0xbdcd557b	-0.1002607
142	0xbce4a53c	-0.027910821
143	0xbe0d5142	-0.13800529
144	0x3e8d7a4c	0.27632368
145	0xbd81364b	-0.06309184
146	0x3b22bb1f	0.002483077
147	0xbd81a23b	-0.06329771
148	0xbd73c0f5	-0.05951019
149	0x3d9b6af9	0.07588763
150	0xbd665d6e	-0.056241445
151	0xbd3aa158	-0.045564026
152	0xbe2ee9aa	-0.17081323
153	0x3b264690	0.0025371648
154	0x3dcabc11	0.09899152
155	0xbdfa8a16	-0.12233369
156	0xbda2c27c	-0.07947251
157	0xbcd2849b	-0.025697997
158	0xbcbe0c81	-0.023199322
159	0xbc8d42c5	-0.017243752
160	0xbd18590e	-0.037194304
161	0x3e01ab90	0.12663102
162	0x3b61fd66	0.0034483313
163	0xbe6a4cde	-0.22880885
164	0x3dfd90b4	0.123811156
165	0xbe1b4c36	-0.15165791
166	0x3dd800b0	0.10547006
167	0xbcfd6261	-0.0309307
168	0xbd931c3c	-0.0718312
169	0xbda14c17	-0.07875841
170	0x3e3be8c4	0.18350512
171	0xbe696941	-0.22794057
172	0x3dcad937	0.09904712
173	0xbd9bce4e	-0.07607709
174	0x3db19a57	0.08672016
175	0x3d22994c	0.039696977
176	0x3e065f6d	0.1312234
177	0xbd8cb067	-0.068695836
178	0xbe976b31	-0.29573968
179	0x3d512882	0.051064022
180	0xbc0d383e	-0.008619366
181	0x3db9d0d8	0.09073037
182	0xbde2cd2c	-0.1107429
183	0xbda853ea	-0.0821913
184	0x3db80f4e	0.08987294
185	0xbe3a0556	-0.18166098
186	0x3e40bf07	0.18822871
187	0x3c5c929c	0.013462689
188	0x3dde91f3	0.10867681
189	0xbdebdfdf	-0.115173094
190	0x3be079d8	0.0068504624
191	0x3e0d4d06	0.13798913
192	0x3dfde15b	0.12396499
193	0xbd9c959d	-0.07645724
194	0x3db00ece	0.08596574
195	0xbd3c9e71	-0.04604954
196	0xbd343c55	-0.04400285
197	0x3e1acb38	0.15116584
198	0xbe61d9ca	-0.22055736
199	0xba246a56	-0.0006271949
200	0x3de57bbd	0.11205242
201	0xbe215273	-0.15754108
202	0xbe08b7b9	-0.13351335
203	0xbd573ff2	-0.052551217
204	0x3d45db79	0.04830501
205	0xbe398528	-0.18117201
206	0xbde5b8aa	-0.112168625
207	0x3e667928	0.22507155
208	0x3d9a09a1	0.07521368
209	0xba63ca2d	-0.00086894893
210	0x3d7fa298	0.06241092
211	0x3e33c386	0.17555055
212	0xbc0c43d2	-0.0085610915
213	0xbe42d002	-0.19024661
214	0x3dd4a5a6	0.103831574
215	0xbe1cd274	-0.15314656
216	0x3d06b995	0.03289183
217	0x3d0fffba	0.03515599
218	0x3dfef302	0.12448694
219	0x3da81b68	0.08208352
220	0xbd82db76	-0.06389515
221	0xbd40dbec	-0.047084734
222	0xbd9565a1	-0.07294775
223	0xbe3a25c5	-0.1817847
224	0x3ca2d17a	0.019875277
225	0xbce0d05f	-0.02744311
226	0x3d50b965	0.050958056
227	0xbdf88593	-0.12134852
228	0xbb18bc07	-0.0023305432
229	0xbe181afe	-0.14854047
230	0xbcd8afed	-0.026451075
231	0xbc19f748	-0.009397335
232	0x3e147500	0.14497757
233	0xbd5a35ec	-0.05327408
234	0x3e1cfa77	0.1532992
235	0x3de2dc6d	0.11077199
236	0xbe80419b	-0.25050053
237	0xbd9a2d40	-0.07528162
238	0xbe15d71c	-0.14632839
239	0xbe38caef	-0.18046163
240	0xbda86e23	-0.08224132
241	0xbe24cf68	-0.16094744
242	0xbdd83308	-0.105566084
243	0x3d1c36c0	0.03813815
244	0x3dc294c6	0.095010325
245	0x3c9309ed	0.017949069
246	0xbc8e50cd	-0.017372513
247	0x3d432f9b	0.047652822
248	0xbd6b9ea4	-0.05752434
249	0x3d80c6b9	0.06287903
250	0xbc8e3d6d	-0.017363274
251	0x3cb4fba9	0.022092657
252	0xbccc1046	-0.024910104
253	0xbe1a3720	-0.15060091
254	0xbe0b3888	-0.13595784
255	0xbdd6c3c3	-0.10486557

model.8.bias f4 [32]
0	0xbd0fa3ae	-0.035068206
1	0x3d9c836a	0.07642253
2	0x3d56ec99	0.05247173
3	0xbc9fc61f	-0.019503651
4	0x3db75b7a	0.08952995
5	0x3d981c7d	0.07427309
6	0xbd912ff8	-0.070892274
7	0xbda4bb84	-0.08043578
8	0x3d4cb2cb	0.049975198
9	0xbd08919c	-0.03334199
10	0xbde38112	-0.111086026
11	0x3be5ffb1	0.007019006
12	0xbc42c238	-0.011887126
13	0xbc3112a1	-0.010807664
14	0x3c2ed87e	0.010671733
15	0x3e083266	0.13300475
16	0x3db1da77	0.08684247
17	0x3c62e009	0.013847359
18	0xbe07fd5c	-0.13280243
19	0x3e0613c0	0.13093472
20	0xbd940b03	-0.07228663
21	0x3d80a734	0.062818915
22	0xbda62b5e	-0.081137404
23	0xbd522115	-0.05130108
24	0xbde5e30b	-0.11224946
25	0xbdce1382	-0.100623146
26	0x3d1c4c70	0.038158834
27	0x3df94765	0.121718206
28	0xbdbfe919	-0.09370632
29	0x3dac42c4	0.08411172
30	0x3d824dc2	0.063624874
31	0xbd908ea0	-0.070584536

model.9.weight f4 [32]
0	0x3f8b6b64	1.0892148
1	0x3f687f15	0.9081891
2	0x3f802d7f	1.0013884
3	0x3f843ab1	1.0330411
4	0x3f817082	1.011246
5	0x3f84c670	1.0373058
6	0x3f5ce1fc	0.86282325
7	0x3f876271	1.0576917
8	0x3f871093	1.0551933
9	0x3f57bf35	0.84276134
10	0x3f847226	1.0347335
11	0x3f89c0f8	1.0762014
12	0x3f681014	0.90649533
13	0x3f890c2d	1.0706841
14	0x3f875e34	1.0575624
15	0x3f8c14d9	1.0943862
16	0x3f854563	1.04118
17	0x3f50b6d9	0.81529003
18	0x3f880908	1.0627756
19	0x3f52976f	0.8226232
20	0x3f5894eb	0.8460223
21	0x3f850d31	1.0394651
22	0x3f57dfd7	0.8432593
23	0x3f82dbe4	1.0223355
24	0x3f50ff6f	0.8163976
25	0x3f56e76b	0.83946866
26	0x3f8f8556	1.1212566
27	0x3f8724a9	1.0558063
28	0x3f54caa0	0.8312168
29	0x3f8b134c	1.0865264
30	0x3f58c2fc	0.8467252
31	0x3f8c2ff9	1.095214

model.9.bias f4 [32]
0	0x3e2b0d99	0.16704406
1	0x3e02d5b0	0.12776828
2	0x3e078ba9	0.1323687
3	0x3df75a0a	0.120777205
4	0x3e1b09bc	0.15140432
5	0x3e1e8a0b	0.15482347
6	0x39247a0c	0.00015685725
7	0x3dff2304	0.124578506
8	0x3e03c3f7	0.12867723
9	0x3d890939	0.06691212
10	0x3e1b0b5d	0.15141053
11	0x3e3ad7d1	0.1824639
12	0x3d39df85	0.04537918
13	0x3e136bd3	0.143966
14	0x3e2cf5ce	0.16890642
15	0x3e386688	0.18007863
16	0x3dfb324c	0.12265453
17	0xbe14d228	-0.14533293
18	0x3e10a187	0.14124118
19	0xbe198848	-0.14993393
20	0xbdcbfbc5	-0.099601306
21	0x3e16ac06	0.14714059
22	0xbe0051f9	-0.1253127
23	0x3e0e5dbf	0.13902949
24	0xbe0eb3eb	-0.13935821
25	0xbe09bcc9	-0.13450922
26	0x3e5815ec	0.21102113
27	0x3e108ff3	0.14117412
28	0xbe0fb234	-0.14032823
29	0x3e336ab5	0.17521174
30	0xbddc00ae	-0.10742317
31	0x3e5e2bb7	0.21696363

model.9.running_mean f4 [32]
0	0xbf51bd38	-0.8192935
1	0xbf009f00	-0.50242615
2	0xbe1d5ec7	-0.15368186
3	0xbf349db4	-0.70553136
4	0x3dc7ef44	0.09762433
5	0xbf588cb1	-0.8458968
6	0xbf073224	-0.52810884
7	0xbf075cd9	-0.5287605
8	0xbf59471b	-0.84874123
9	0xbeb66900	-0.35626984
10	0xbea83f70	-0.328609
11	0xbf005996	-0.501367
12	0x3ea1e1aa	0.3161748
13	0xbf16eef1	-0.58958346
14	0xbee1359a	-0.43986207
15	0xbeb11824	-0.3458873
16	0xbf1781d7	-0.59182495
17	0x3e83b307	0.25722525
18	0xbf6be113	-0.9214031
19	0xbe4f2539	-0.20229043
20	0x3c049701	0.008092643
21	0xbf76497c	-0.9620588
22	0xbb80ed33	-0.0039345264
23	0xbedaa709	-0.42705563
24	0x3e8bc663	0.27299795
25	0xbe45c861	-0.1931472
26	0xbec184a4	-0.3779651
27	0xbe9bb383	-0.30410394
28	0xbe80fbd7	-0.2519214
29	0x3e05e8a0	0.1307702
30	0x3d158010	0.036499083
31	0xbef700cf	-0.48242804

model.9.running_var f4 [32]
0	0x4080d21f	4.0256495
1	0x3f9c129b	1.2193178
2	0x4008c896	2.1372428
3	0x400a5f3f	2.1620634
4	0x3fb1718e	1.3862779
5	0x3fe727c2	1.8059008
6	0x3fab0b25	1.3362776
7	0x407ae39e	3.9201427
8	0x40918374	4.5472965
9	0x3fd6a571	1.6769239
10	0x4000859c	2.0081549
11	0x4054e529	3.3264868
12	0x3f9d3d6a	1.2284367
13	0x4045b7a7	3.0893342
14	0x40238d89	2.5555136
15	0x4022bedc	2.5428991
16	0x4072518e	3.7862277
17	0x403041a6	2.7540069
18	0x40801cf8	4.003536
19	0x3ff988a5	1.9494826
20	0x3fc4013a	1.5312874
21	0x4035483d	2.832534
22	0x3f8d0fea	1.1020482
23	0x4022d585	2.5442822
24	0x3fe8c9cd	1.8186585
25	0x3fb759b5	1.4324251
26	0x4091475e	4.539962
27	0x405160c3	3.2715309
28	0x3f8f5312	1.1197226
29	0x402356da	2.552176
30	0x3fcebef1	1.6152021
31	0x3ff23c15	1.8924586

model.12.weight f4 [1, 32]
0	0x3e479577	0.1949061
1	0x3dc18d02	0.09450723
2	0x3dee6466	0.11640243
3	0x3e342cc7	0.17595206
4	0x3e09682a	0.13418642
5	0x3e4fca52	0.20292023
6	0x3dbdd9fe	0.09270094
7	0x3e7227ec	0.23648041
8	0x3e6acf56	0.22930655
9	0x3db59c3f	0.08867692
10	0x3e52ede1	0.20598556
11	0x3e4be048	0.19909775
12	0x3dd91fa0	0.10601735
13	0x3e55a14a	0.20862308
14	0x3e3118e0	0.17294645
15	0x3e383cca	0.17991939
16	0x3e67082c	0.22561711
17	0x3d42f2c9	0.04759482
18	0x3e555cd5	0.20836194
19	0x3d5f9975	0.054589707
20	0x3db17916	0.086656734
21	0x3e248752	0.16067246
22	0x3d8a7686	0.06760888
23	0x3e72cbc1	0.23710538
24	0x3d0c4cb7	0.03425285
25	0x3d55cd92	0.052198
26	0x3e25d5c9	0.16194834
27	0x3e714b8b	0.23563974
28	0x3d891312	0.066930905
29	0x3e1f0803	0.155304
30	0x3d981c50	0.07427275
31	0x3e29870b	0.16555421
